…
rflow/keras-applications/resnet/resnet50_weights_tf_dim_ordering_tf_kernels_notop.h5\n94773248/94765736 [==============================] - 1s 0us/step\n94781440/94765736 [==============================] - 1s 0us/step\nModel: \"model\"\n_________________________________________________________________\nLayer (type)                 Output Shape              Param #   \n=================================================================\ninput_2 (InputLayer)         [(None, 200, 200, 3)]     0         \n_________________________________________________________________\ntf.cast (TFOpLambda)         (None, 200, 200, 3)       0         \n_________________________________________________________________\ntf.__operators__.getitem (Sl (None, 200, 200, 3)       0         \n_________________________________________________________________\ntf.nn.bias_add (TFOpLambda)  (None, 200, 200, 3)       0         \n_________________________________________________________________\nresnet50 (Functional)        (None, 7, 7, 2048)        23587712  \n_________________________________________________________________\nglobal_average_pooling2d (Gl (None, 2048)              0         \n_________________________________________________________________\ndense (Dense)                (None, 128)               262272    \n_________________________________________________________________\ndense_1 (Dense)              (None, 64)                8256      \n_________________________________________________________________\ndense_2 (Dense)              (None, 38)                2470      \n=================================================================\nTotal params: 23,860,710\nTrainable params: 272,998\nNon-trainable params: 23,587,712\n_________________________________________________________________\n","output_type":"stream"}]},{"cell_type":"code","source":"Model_2.compile(optimizer='Adam',loss='categorical_crossentropy',metrics=['accuracy'])\ncallback = tf.keras.callb
…
gleapis.com/tensorflow/keras-applications/mobilenet/mobilenet_1_0_224_tf_no_top.h5\n17227776/17225924 [==============================] - 0s 0us/step\n17235968/17225924 [==============================] - 0s 0us/step\nModel: \"model_1\"\n_________________________________________________________________\nLayer (type)                 Output Shape              Param #   \n=================================================================\ninput_4 (InputLayer)         [(None, 230, 230, 3)]     0         \n_________________________________________________________________\nmobilenet_1.00_224 (Function (None, 7, 7, 1024)        3228864   \n_________________________________________________________________\nglobal_average_pooling2d_1 ( (None, 1024)              0         \n_________________________________________________________________\ndropout (Dropout)            (None, 1024)              0         \n_________________________________________________________________\ndense_3 (Dense)              (None, 128)               131200    \n_________________________________________________________________\ndense_4 (Dense)              (None, 64)                8256      \n_________________________________________________________________\ndense_5 (Dense)              (None, 32)                2080      \n_________________________________________________________________\ndense_6 (Dense)              (None, 38)                1254      \n=================================================================\nTotal params: 3,371,654\nTrainable params: 142,790\nNon-trainable params: 3,228,864\n_________________________________________________________________\n","output_type":"stream"}]},{"cell_type":"code","source":"Model_3.compile(optimizer='Adam',loss='categorical_crossentropy',metrics=['accuracy'])\ncallback = tf.keras.callbac
…
